model_weights/autoencoder.pt (torch, 578018 bytes, 48 tensors)

cnn.0.weight f4 [4, 1, 3, 3]
0.12047265 -0.052659024 -0.035837065 -0.23192668 0.08855835 -0.30306295 -0.14412779 0.066870235
0.052736145 0.092687055 -0.15844989 -0.2073944 0.13934132 -0.31117806 -0.13736145 -0.13245219
-0.10976047 -0.009229979 -0.17425467 -0.31213462 0.1382292 -0.06667492 -0.06964084 0.096994445
-0.17452961 0.21868014 -0.26481226 -0.044573054 -0.22832753 -0.21075068 -0.14174229 0.08574529
0.08157353 -0.1805724 0.2900973 0.030486215
00000000: 5dba f63d fdb0 57bd e3c9 12bd 307e 6dbe
00000010: 155e b53d 112b 9bbe 3c96 13be 43f3 883d
00000020: db01 583d b6d2 bd3d b040 22be 335f 54be
00000030: 7eaf 0e3e bb52 9fbe 7ba8 0cbe 8ca1 07be
00000040: 19ca e0bd 5639 17bc d16f 32be 1cd0 9fbe
00000050: f58b 0d3e dc8c 88bd db9f 8ebd 06a5 c63d
00000060: e4b7 32be b0ed 5f3e 7995 87be 3c92 36bd
00000070: b1ce 69be 07cf 57be e424 11be 3a9b af3d
00000080: 0610 a73d f9e7 38be a287 943e 3abe f93c

cnn.0.bias f4 [4]
-0.3479445 -0.21152022 -0.07755325 -0.060907237
00000000: c825 b2be c298 58be 3dd4 9ebd de79 79bd

cnn.2.weight f4 [8, 4, 3, 3]
0.10520687 0.09015973 -0.06348834 9.7424316e-05 0.005775022 -0.12255413 -0.09099079 -0.16664214
-0.018887848 0.10855584 0.021029286 0.04755189 -0.12528476 -0.1629777 -0.13798542 -0.11627045
-0.09419443 -0.22062731 -0.04587329 -0.03046752 -0.046697564 0.10539183 -0.107265435 0.09862761
-0.008484127 0.0044634677 -0.11320575 0.06747509 -0.039564006 -0.03821221 -0.15855142 -0.07246274
-0.020228026 -0.0803216 -0.07894793 0.08083206 0.06818061 0.054861818 0.031806823 -0.06348387
0.029532537 0.15716824 -0.12085026 -0.0978213 -0.110428065 -0.06375193 0.14902024 0.11316959
0.07746144 0.16886282 0.10952484 0.060193866 0.02230834 -0.029572088 -0.043313727 0.037902262
-0.052456666 0.06450818 -0.0027400272 0.1509753 0.14419888 0.10421125 -0.1034483 0.087799735
0.0018245432 0.0971693 -0.007039689 -0.047689598 0.077846 -0.02832403 0.012165682 0.027773121
0.0474966 0.07307864 -0.14134102 -0.07171191 -0.08101601 -0.10556337 -0.09348313 -0.17244339
0.0648741 -0.047582924 -0.05511694 0.0537891 0.063736185 -0.08007678 0.05538623 -0.026346603
-0.121778645 -0.04911846 0.04027865 -0.13842288 -0.098551326 -0.0709212 -0.11130285 -0.13563775
-0.038066678 -0.047611915 0.132237 0.0435595 0.03621497 0.0467521 0.071280956 0.107149035
0.08497977 0.13730794 0.02972807 -0.018955005 -0.049304366 0.015791036 -0.056357305 0.025197225
0.03729586 -0.105883636 -0.03765037 -0.075652145 -0.061696008 -0.004456557 -0.032797467 -0.053822882
-0.18967603 -0.16644359 -0.10738889 -0.09805213 -0.08930846 -0.10696944 -0.07223192 0.11371651
-0.08445719 -0.09742424 -0.077070676 0.11541409 -0.006410092 -0.09132272 0.0224271 0.055584006
0.0386644 0.1499145 0.108341955 -0.018109398 0.14657904 0.11797737 0.07641988 0.089317344
0.009726526 0.056246977 0.102753244 -0.1391841 0.056822725 -0.124254666 0.044187173 0.032127976
-0.13392922 -0.17540018 -0.08123701 -0.110541664 0.0686417 0.095484644 0.026262013 0.022640046
0.11432713 0.16453937 -0.06420229 -0.047265477 -0.15735878 -0.099389195 -0.0037864277 -0.15186888
-0.054875348 -0.14248165 -0.12138947 0.022450633 -0.002400552 0.015847627 -0.10637136 -0.045821115
0.020455878 -0.03908571 -0.081716456 -0.051409446 -0.15134439 0.020903012 -0.06871396 -0.04836519
0.02513879 -0.03453471 0.09981509 0.014673661 -0.033729438 0.037224315 0.001982582 -0.15230161
0.04430653 -0.07896744 -0.00013777745 -0.116507046 -0.041752897 0.016082859 0.12984332 -0.09627137
0.030219825 0.08136342 -0.05005212 -0.030047486 0.09141564 -0.013134686 0.016390927 0.08698301
0.12033712 -0.053575095 0.041161124 0.023665259 0.07882367 0.056150973 0.09255153 -0.10432723
0.15924968 -0.015511082 -0.09833142 0.15397665 -0.07592977 -0.08680794 0.17199248 0.023742331
-0.13399039 0.088877365 -0.038954195 -0.06375072 0.087456666 0.033271167 -0.06671233 0.008695028
-0.05001939 -0.03707976 0.025999457 0.053473566 -0.14224835 0.18618932 -0.083384134 -0.12675588
0.13491157 0.066687636 0.053311482 -0.02169854 -0.0012307736 0.045256168 0.016475637 -0.11492468
0.10254331 -0.1221052 0.04465033 -0.09857268 0.017869657 -0.04589234 -0.10589063 -0.024719458
00000000: b376 d73d aaa5 b83d 2d06 82bd 4850 cc38
00000010: 653c bd3b a9fd fabd 6159 babd 3da4 2abe
00000020: b0ba 9abc 8652 de3d 9c45 ac3c c5c5 423d
00000030: a64a 00be a0e3 26be 0d4c 0dbe 341f eebd
00000040: 02e9 c0bd 20ec 61be a2e5 3bbd 0597 f9bc
00000050: f245 3fbd acd7 d73d fbad dbbd 46fd c93d
00000060: 0201 0bbc 4842 923b 6bd8 e7bd 6130 8a3d
00000070: de0d 22bd 6884 1cbd 4e5b 22be 5867 94bd
00000080: 3fb5 a5bc a77f a4bd 74af a1bd 478b a53d
00000090: 47a2 8b3d c9b6 603d df47 023d d503 82bd
000000a0: 38ee f13c b6f0 203e 5780 f7bd 8956 c8bd
000000b0: 1c28 e2bd 5f90 82bd c398 183e 75c5 e73d
000000c0: 1aa4 9e3d 60ea 2c3e 8f4e e03d d88d 763d
000000d0: fbbf b63c 2a41 f2bc bc69 31bd 673f 1b3d
000000e0: cddc 56bd dd1c 843d 0792 33bb 4599 1a3e
000000f0: dfa8 133e b56c d53d b4dc d3bd 59d0 b33d
00000100: 8325 ef3a b300 c73d 31ad e6bb 2b56 43bd
00000110: b96d 9f3d cc07 e8bc 9252 473c 7584 e33c
00000120: cb8b 423d 41aa 953d b3bb 10be b2dd 92bd
00000130: b9eb a5bd 9c31 d8bd 1574 bfbd 0095 30be
00000140: b6dc 843d 50e6 42bd 4dc2 61bd f651 5c3d
00000150: 1e88 823d 4bff a3bd acdc 623d d5d4 d7bc
00000160: 1567 f9bd 7030 49bd 3afb 243d babe 0dbe
00000170: 47d5 c9bd 223f 91bd c0f2 e3bd 9fe4 0abe
00000180: ceeb 1bbd b604 43bd 2369 073e 726b 323d
00000190: 2656 143d 217f 3f3d c0fb 913d f470 db3d
000001a0: e009 ae3d 749a 0c3e 4888 f33c 8747 9bbc
000001b0: 60f3 49bd 345c 813c ebd6 66bd 696a ce3c
000001c0: 8bc3 183d 85d9 d8bd 4637 1abd 83ef 9abd
000001d0: f4b4 7cbd 4f08 92bb a356 06bd 6275 5cbd
000001e0: 6f3a 42be 3070 2abe b5ee dbbd 8ecf c8bd
000001f0: 5be7 b6bd cb12 dbbd 54ee 93bd 34e4 e83d
00000200: e4f7 acbd 5c86 c7bd 3bd7 9dbd 395e ec3d
00000210: c00b d2bb 6807 bbbd 0ab9 b73c 0eac 633d
00000220: 905e 1e3d 3083 193e 63e2 dd3d 295a 94bc
00000230: d118 163e 1f9e f13d 0782 9c3d 03ec b63d
00000240: 025c 1f3c 3b63 663d 4b70 d23d 4786 0ebe
00000250: f2be 683d 3b79 febd 9cfd 343d a098 033d
00000260: be24 09be 1b9c 33be 975f a6bd ab63 e2bd
00000270: 0594 8c3d 748d c33d 6f23 d73c 9e77 b93c
00000280: 5824 ea3d 027d 283e 7d7c 83bd 7299 41bd
00000290: a922 21be 908c cbbd b725 78bb 8483 1bbe
000002a0: f9c4 60bd b6e6 11be 0b9b f8bd 64ea b73c
000002b0: 9452 1dbb e2d2 813c 3ad9 d9bd ecae 3bbd
000002c0: 1693 a73c 5618 20bd f55a a7bd b692 52bd
000002d0: 06fa 1abe cb3c ab3c e8b9 8cbd 941a 46bd
000002e0: ddef cd3c 4574 0dbd db6b cc3d cc69 703c
000002f0: e127 0abd 8678 183d 35ee 013b f4f4 1bbe
00000300: c47a 353d aeb9 a1bd 5a78 10b9 3f9b eebd
00000310: 1605 2bbd 33c0 833c a6f5 043e ed29 c5bd
00000320: 918f f73c dda1 a63d 7403 4dbd 2526 f6bc
00000330: 2038 bb3d de32 57bc 4446 863c 2624 b23d
00000340: 4f73 f63d 8f71 5bbd 9198 283d a5dd c13c
00000350: 4e6e a13d 90fe 653d a88b bd3d 84a9 d5bd
00000360: 5912 233e 3122 7ebc fc61 c9bd 0eac 1d3e
00000370: 1181 9bbd 5cc8 b1bd cc1e 303e 477f c23c
00000380: c734 09be 5605 b63d 6f8e 1fbd bd8f 82bd
00000390: 7b1c b33d 5947 083d 79a0 88bd 9775 0e3c
000003a0: 22e1 4cbd f2e0 17bd d0fc d43c 1907 5b3d
000003b0: 8da9 11be 6aa8 3e3e 4dc5 aabd 4bcc 01be
000003c0: 4226 0a3e 8793 883d 245d 5a3d 23c1 b1bc
000003d0: e951 a1ba 885e 393d eaf7 863c a15d ebbd
000003e0: 3a02 d23d 4b12 fabd 44e3 363d 79e0 c9bd
000003f0: 6363 923c 9bf9 3bbd 30dd d8bd 7680 cabc

cnn.2.bias f4 [8]
0.06770508 0.01344857 0.033333845 0.12601526 0.08002972 -0.14824711 0.012969456 0.110901386
00000000: f6a8 8a3d 6457 5c3c 1289 083d 250a 013e
00000010: 9fe6 a33d 17ce 17be d77d 543c 4420 e33d

cnn.4.weight f4 [16, 8, 3, 3]
0.054353397 0.063023895 -0.04694232 -0.023261836 -0.02714577 -0.040040147 0.06549176 0.07540162
-0.0573195 -0.087669365 0.090648584 -0.07537571 -0.10133543 -0.115524456 0.10362568 0.018970657
-0.11201396 -0.00095044024 0.10483125 -0.044375945 -0.008144196 0.07922697 0.12473671 -0.12340746
-0.075882524 -0.0037671342 -0.023312956 0.06412287 0.046877027 -0.0063103996 0.123547405 0.040652156
-0.0740266 0.10427874 0.06211552 -0.01095088 0.02230351 0.08864914 -0.069751136 0.065111674
-0.08195173 0.028368805 -0.06757631 -0.033003394 -0.054181747 -0.037485026 0.03500039 0.0073102834
-0.09199509 -0.09196785 -0.007311115 0.08241826 0.097041756 0.07976734 -0.0709104 0.031033427
-0.0382538 -0.024079928 -0.10785233 0.05499159 0.039581656 -0.018884037 -0.051928163 -0.0032303156
-0.036856025 0.044885058 0.101294756 -0.009867124 0.021106659 -0.008495539 -0.0700448 -0.10382239
-0.0406406 -0.07797007 -0.042072866 0.06641068 0.056349803 0.019461345 0.0010115994 0.035808757
0.11338441 -0.058500405 0.06788745 -0.02165673 0.058537923 -0.09216145 -0.027915962 0.06977379
-0.05716328 -0.046109457 -0.012731676 0.02745786 0.07317272 0.05824597 0.06768273 0.111639276
0.012781254 0.0025934195 -0.042199407 0.03815964 -0.015743531 0.047856014 -0.014690805 0.06267905
0.12622155 -0.028498316 0.079703055 -0.06633791 -0.06520459 -0.10036978 0.011854629 -0.03795846
-0.08793082 0.07374573 0.039472222 0.015400801 0.034841616 0.008000799 -0.053930786 -0.049313467
0.06790639 0.03339716 -0.08606187 0.012857164 0.107707806 -0.05868082 0.059587505 0.07809335
-0.021559542 0.03750128 -0.04670426 -0.09368131 -0.04534355 -0.10308699 -0.10305148 -0.078569464
-0.10651528 -0.10161985 0.11471951 0.031406503 0.051297553 -0.0012582035 0.12130451 0.09524136
-0.027059453 0.09675496 -0.06570039 -0.01703833 -0.05021776 -0.07029035 0.04928985 0.037840817
-0.10675896 0.028491406 -0.11702657 -0.081499994 -0.06039363 -0.13214822 -0.07193611 -0.05719807
-0.054149676 -0.078118674 0.095176235 0.078071594 -0.03217188 -0.10911841 0.0672599 0.14138712
0.051384624 0.007901451 0.07054513 -0.013669961 0.09077528 0.14403376 0.0057485825 0.11463705
0.12433628 -0.06514683 0.033392437 0.09710916 -0.08185696 0.063197196 -0.0019597083 -0.04954765
0.005592097 0.09835083 -0.09150918 0.09099426 0.004333517 0.042900354 0.026503254 -0.09323459
-0.12266649 -0.0648287 0.10552842 -0.10399574 -0.036671545 -0.0062684505 0.02635208 0.019346572
0.0021347054 -0.075493775 0.03849338 0.02913566 0.062065836 0.083768375 -0.011088254 0.024428874
-0.01583703 0.08969486 -0.03906035 0.037041325 0.074582525 0.039725665 0.033868965 0.004253721
0.11722384 -0.0121343145 -0.06701042 0.09814526 -0.010145937 0.0069851866 0.03143585 -0.05316
0.09160398 0.045164663 0.058956545 0.022805687 -0.026275445 0.09337457 -0.056659456 -0.047876976
0.033791356 0.002493719 0.10248238 0.09727792 -0.042644188 0.09168431 -0.062240023 -0.039420746
-0.06399462 -0.049527247 -0.03426368 -0.023033248 -0.030443374 -0.10185994 -0.122864656 -0.0411078
-0.047175635 -0.07207109 0.09631199 0.06547748 0.04051413 -0.030440902 0.03479117 -0.06306148
00000000: aba1 5e3d ac12 813d 9746 40bd 9b8f bebc
00000010: ce60 debc 2301 24bd 8b20 863d 2a6c 9a3d
00000020: dac7 6abd ff8b b3bd f7a5 b93d 955e 9abd
00000030: f388 cfbd 1698 ecbd b339 d43d 5a68 9b3c
00000040: 9367 e5bd f726 79ba c4b1 d63d 8dc3 35bd
00000050: 3c6f 05bc c041 a23d f675 ff3d 0dbd fcbd
00000060: 4c68 9bbd 06e2 76bb d0fa bebc da52 833d
00000070: 2002 403d 78c7 cebb 6c06 fd3d e082 263d
00000080: 429b 97bd 1890 d53d d86c 7e3d 526b 33bc
00000090: dab5 b63c ae8d b53d afd9 8ebd 4559 853d
000000a0: 4fd6 a7bd b265 e83c 7365 8abd 912e 07bd
000000b0: aeed 5dbd e689 19bd 925c 0f3d 1a8b ef3b
000000c0: ec67 bcbd a459 bcbd 1492 efbb e8ca a83d
000000d0: d4bd c63d 0f5d a33d 7939 91bd d039 fe3c
000000e0: 04b0 1cbd 4543 c5bc afe1 dcbd dd3e 613d
000000f0: 6020 223d b2b2 9abc a0b2 54bd b4b3 53bb
00000100: 58f6 16bd 65d9 373d a073 cf3d b8a9 21bc
00000110: dfe7 ac3c e030 0bbc a673 8fbd d5a0 d4bd
00000120: c276 26bd c6ae 9fbd 9954 2cbd 5302 883d
00000130: 0dcf 663d 666d 9f3c a597 843a 34ac 123d
00000140: 1636 e83d 1f9e 6fbd 9308 8b3d 7469 b1bc
00000150: 76c5 6f3d 24bf bcbd 04b0 e4bc 90e5 8e3d
00000160: 0b24 6abd 45dd 3cbd 8598 50bc 4eef e03c
00000170: 94db 953d 5493 6e3d 3e9d 8a3d 22a3 e43d
00000180: 7768 513c 5cf6 293b 49d9 2cbd 484d 1c3d
00000190: 94f8 80bc ab04 443d b4b1 70bc e05d 803d
000001a0: 3940 013e 4d75 e9bc 5b3b a33d 2cdc 87bd
000001b0: fc89 85bd ac8e cdbd eb39 423c 557a 1bbd
000001c0: 1315 b4bd 0008 973d a0ad 213d a453 7c3c
000001d0: 15b6 0e3d c915 033c 87e6 5cbd ebfc 49bd
000001e0: 8112 8b3d 76cb 083d 3541 b0bd dba6 523c
000001f0: e995 dc3d 4d5b 70bd 0712 743d 68ef 9f3d
00000200: a39d b0bc f19a 193d f74c 3fbd fddb bfbd
00000210: 29ba 39bd 461f d3bd a80c d3bd 07e9 a0bd
00000220: af24 dabd 111e d0bd 10f2 ea3d 1ba4 003d
00000230: 621d 523d 4eea a4ba 806e f83d e70d c33d
00000240: c9ab ddbc 7727 c63d ed8d 86bd f893 8bbc
00000250: 23b1 4dbd 63f4 8fbd 27e4 493d f9fe 1a3d
00000260: 71a4 dabd cf66 e93c a0ab efbd 78e9 a6bd
00000270: 505f 77bd dd51 07be 3d53 93bd 8648 6abd
00000280: 0dcc 5dbd affc 9fbd c2eb c23d 00e4 9f3d
00000290: a9c6 03bd 7979 dfbd 8fbf 893d c9c7 103e
000002a0: af78 523d 1675 013c f779 903d f9f7 5fbc
000002b0: 64e8 b93d 967d 133e 9b5e bc3b d4c6 ea3d
000002c0: 05a4 fe3d b46b 85bd 82c6 083d 2be1 c63d
000002d0: 9fa4 a7bd 886d 813d 736e 00bb 7af2 4abd
000002e0: e93d b73b 296c c93d 2a69 bbbd 335b ba3d
000002f0: 2d00 8e3b 48b8 2f3d 5a1d d93c c7f1 bebd
00000300: 9238 fbbd e9c4 84bd 491f d83d b8fb d4bd
00000310: e734 16bd 9367 cdbb 51e0 d73c b47c 9e3c
00000320: 6ae6 0b3b 7b9c 9abd 3cab 1d3d e8ad ee3c
00000330: bf38 7e3d c18e ab3d 82ab 35bc 101f c83c
00000340: a9bc 81bc f0b1 b73d bffd 1fbd a5b8 173d
00000350: b9be 983d 61b7 223d 2fba 0a3d cc62 8b3b
00000360: 0d13 f03d 01cf 46bc c23c 89bd 6200 c93d
00000370: 253b 26bc fee3 e43b e1c2 003d 4dbe 59bd
00000380: de9a bb3d 95fe 383d 6b7c 713d fed2 ba3c
00000390: 9a3f d7bc 2b3b bf3d bf13 68bd a61a 44bd
000003a0: ce68 0a3d aa6d 233b 48e2 d13d a539 c73d
000003b0: acab 2ebd fcc4 bb3d 65ef 7ebd a677 21bd
000003c0: 9d0f 83bd 15dd 4abd 1358 0cbd 39b0 bcbc
000003d0: 6264 f9bc f29b d0bd 77a0 fbbd a760 28bd
000003e0: 3d3b 41bd 029a 93bd 383f c53d 0f19 863d
000003f0: 25f2 253d 335f f9bc 3081 0e3d 6126 81bd

cnn.4.bias f4 [16]
0.047109693 -0.0078945095 0.056553133 0.07405246 -0.046210766 -0.09465448 0.058498226 -0.07575986
-0.07241011 0.0068647484 0.051832948 -0.000955488 -0.040567465 0.050358247 -0.0004561989 -0.10995549
00000000: 18f6 403d f957 01bc 42a4 673d d1a8 973d
00000010: 8047 3dbd 35da c1bd d69b 6f3d fc27 9bbd
00000020: c04b 94bd aff1 e03b c94e 543d b779 7aba
00000030: 122a 26bd 7344 4e3d fb2d efb9 5830 e1bd

cnn.6.weight f4 [32, 16, 3, 3]
-0.018271774 -0.047040544 0.058769144 0.048770912 -0.006832787 0.08142554 0.03953697 0.097008206
-0.082931705 -0.07287543 0.014788404 -0.06530936 -0.021667425 0.055807855 0.07355938 0.09777768
-0.060381945 -0.0076654847 0.053485278 -0.024279766 0.06786876 -0.09869363 0.017434618 -0.020501005
0.023401724 -0.024985496 -0.087727115 -0.0055320957 0.0050714114 0.004702572 -0.0056617483 0.05728235
-0.028462555 0.047225483 -0.013699764 0.026811518 0.047878873 0.034440838 0.04242173 -0.01987135
-0.033317555 -0.07202439 -0.009304647 -0.038817417 0.0449079 -0.034895834 0.07662787 0.08482987
-0.076846346 0.037759323 -0.02673626 -0.06019003 0.078031115 -0.0027999391 0.029409047 -0.00292683
-0.05457524 -0.0072113806 -0.011126566 -0.06823501 0.032633938 0.0837763 0.070520274 0.029066661
0.027066555 -0.049851347 0.06795413 0.033507004 -0.036658563 -0.02669098 0.01969075 0.03903366
-0.031985804 0.016814122 -0.07267686 0.026377728 -0.067873985 0.028476316 0.02742059 -0.00437297
-0.0024385366 -0.04475179 -0.01031049 0.03869685 0.010184071 -0.03766353 0.051827546 -0.038417034
0.03854837 0.053912807 -0.019373573 -0.036733106 -0.025213044 0.017130086 0.050736073 -0.028056493
-0.029008234 -0.014335029 -0.066336796 0.028163616 -0.045495078 0.029754682 -0.037537478 -0.009525138
-0.005221753 0.046175946 0.02586571 -0.027291693 -0.037585795 -0.004365312 0.013722547 -0.054124802
-0.051550962 -0.0026021225 -0.031754278 -0.025542555 -0.034049768 -0.033654887 -0.037918627 -0.0734827
-0.037120096 -0.014484233 -0.029881943 -0.026769642 0.058445632 -0.07480079 -0.0037287287 0.020272575
0.060025107 -0.046888776 -0.079946004 -0.007038428 0.04133191 0.08251622 -0.09190704 -0.0325115
0.047099892 -0.02671212 -0.00746979 -0.08494507 0.0933586 0.0061939512 0.08030384 -0.07317584
0.05895926 0.042132244 -0.08214717 0.044337995 0.006949857 -0.054204687 -0.04321129 -0.05203036
0.004589163 0.01093452 -0.050936475 0.032987818 -0.005134234 0.055478897 -0.124249496 -0.009108778
0.055944577 -0.020298019 0.0012358825 0.02227248 0.009733525 0.025266021 -0.065272994 -0.0243499
-0.0029120124 -0.007733743 -0.0021137474 -0.021442944 -0.03139036 -0.017726677 -0.06898617 -0.06741213
-0.05710262 -0.041084617 0.04708337 -0.054403916 0.074507326 0.021396903 -0.019822447 0.025527459
0.041710537 0.04931134 -0.014293249 -0.09792659 -0.028536107 0.057421274 0.06027077 0.011655538
0.064770885 -0.0133396955 0.028038645 0.02069183 0.0072165513 -0.08493645 0.039215077 -0.00016531728
-0.00036230055 0.07941626 0.10184655 -0.0029308277 0.055594068 -0.023550259 -0.029743042 0.017516825
-0.064436965 -0.07053616 -0.037290093 0.052045744 0.043742508 -0.048049077 -0.0104654785 -0.023248285
-0.08474224 0.05513146 0.05151686 -0.06392723 0.080036044 0.014643136 -0.06479966 -0.04729186
0.057529528 -0.01624987 0.057327125 -0.011104307 0.028213477 -0.06661243 0.050715815 0.0021673362
-0.06991339 -0.09236866 0.031071285 0.054269426 0.019650409 -0.022167865 -0.034077585 0.03535839
-0.059296492 0.09343076 0.11634337 -0.0042680316 -0.0055713556 -0.087462015 -0.045543835 0.02391795
0.0395708 -0.0018146493 -0.11210088 -0.0069400826 -0.017013416 -0.005714918 -0.081310384 0.0531194
00000000: b0ae 95bc 96ad 40bd eab7 703d 02c4 473d
00000010: 92e5 dfbb 6fc2 a63d 85f1 213d 3dac c63d
00000020: 19d8 a9bd b73f 95bd 104b 723c eac0 85bd
00000030: e27f b1bc c796 643d 4da6 963d aa3f c83d
00000040: 0f53 77bd bf2e fbbb 6113 5b3d 5ce6 c6bc
00000050: c7fe 8a3d e31f cabd 0bd3 8e3c b9f1 a7bc
00000060: f9b4 bf3c 62ae ccbc 46aa b3bd 9546 b5bb
00000070: 152e a63b 0818 9a3b 3086 b9bb e6a0 6a3d
00000080: 4e2a e9bc 826f 413d fa74 60bc d4a3 db3c
00000090: a31c 443d d611 0d3d 68c2 2d3d 3ec9 a2bc
000000a0: fd77 08bd 8681 93bd 8572 18bc 03ff 1ebd
000000b0: 59f1 373d efee 0ebd 13ef 9c3d 48bb ad3d
000000c0: 9e61 9dbd 85a9 1a3d 0006 dbbc d289 76bd
000000d0: c7ce 9f3d 2f7f 37bb 3eeb f03c 0fd0 3fbb
000000e0: 498a 5fbd 724d ecbb 334c 36bc ccbe 8bbd
000000f0: 2aab 053d e992 ab3d ef6c 903d 351d ee3c
00000100: aeba dd3c ed30 4cbd 892b 8b3d a43e 093d
00000110: 4a27 16bd 0ba7 dabc 7f4e a13c c2e1 1f3d
00000120: 8c03 03bd c5bd 893c 9bd7 94bd 1b16 d83c
00000130: 8401 8bbd 2a47 e93c 25a1 e03c 224b 8fbb
00000140: dbcf 1fbb a74d 37bd 54ed 28bc 9780 1e3d
00000150: 17db 263c 1345 1abd 1f49 543d 2e5b 1dbd
00000160: e5e4 1d3d add3 5c3d 54b5 9ebc 7475 16bd
00000170: 968b cebc 6554 8c3c a1d0 4f3d bbd6 e5bc
00000180: ada2 edbc 78dd 6abc 96db 87bd 62b7 e63c
00000190: 0c59 3abd 17c0 f33c e6c0 19bd 530f 1cbc
000001a0: 3d1b abbb fd22 3d3d 53e4 d33c d492 dfbc
000001b0: 90f3 19bd e40a 8fbb 89d4 603c f8b1 5dbd
000001c0: 1a27 53bd 5f88 2abb c610 02bd 9f3e d1bc
000001d0: c577 0bbd b5d9 09bd 9050 1bbd 197e 96bd
000001e0: 3e0b 18bd 474f 6dbc faca f4bc 024c dbbc
000001f0: b064 6f3d 2831 99bd b05d 74bb ac12 a63c
00000200: e3dc 753d 720e 40bd bbba a3bd 9da2 e6bb
00000210: a64b 293d 44fe a83d c239 bcbd c72a 05bd
00000220: d1eb 403d 60d3 dabc 24c5 f4bb aef7 adbd
00000230: cb32 bf3d a1f6 ca3b 5776 a43d 37dd 95bd
00000240: 447f 713d dc92 2c3d c73c a8bd c29b 353d
00000250: a0bb e33b bc05 5ebd 52fe 30bd c91d 55bd
00000260: b160 963b b326 333c c4a2 50bd 3c1e 073d
00000270: 143d a8bb d73d 633d 8576 febd fc3c 15bc
00000280: 2426 653d 0848 a6bc 56fd a13a c774 b63c
00000290: 5d79 1f3c b0fa ce3c d9ad 85bd 7179 c7bc
000002a0: 76d7 3ebb 576b fdbb cc86 0abb 1da9 afbc
000002b0: 2e93 00bd 8937 91bc 9f48 8dbd 5f0f 8abd
000002c0: 70e4 69bd 5848 28bd 7eda 403d a4d6 5ebd
000002d0: 4c97 983d 8f48 af3c af62 a2bc f61e d13c
000002e0: abd8 2a3d b0fa 493d 3b2e 6abc bc8d c8bd
000002f0: 8ec4 e9bc 9232 6b3d 7cde 763d dff6 3e3c
00000300: 99a6 843d bd8e 5abc 4db1 e53c ea81 a93c
00000310: d278 ec3b 29f3 adbd fd9f 203d 0559 2db9
00000320: 28f3 bdb9 fea4 a23d ed94 d03d 2113 40bb
00000330: 9bb6 633d 79ec c0bc aea7 f3bc 727f 8f3c
00000340: 87f7 83bd 4375 90bd 7fbd 18bd eb2d 553d
00000350: 582b 333d 1ccf 44bd 6677 2bbc 3073 bebc
00000360: 578d adbd 87d1 613d 5803 533d 48ec 82bd
00000370: f0e9 a33d c4e9 6f3c afb5 84bd 1cb5 41bd
00000380: 15a4 6b3d 731e 85bc d9cf 6a3d d7ee 35bc
00000390: f31f e73c 196c 88bd 63bb 4f3d de09 0e3b
000003a0: c02e 8fbd c82b bdbd 3589 fe3c 9e49 5e3d
000003b0: e5f9 a03c 6299 b5bc f094 0bbd f6d3 103d
000003c0: e1e0 72bd a058 bf3d 6f45 ee3d d8da 8bbb
000003d0: eb8f b6bb 491f b3bd 2c8c 3abd 94ef c33c
000003e0: fe14 223d 87d9 edba 2595 e5bd a269 e3bb
000003f0: b85f 8bbc 3544 bbbb 0f86 a6bd ba93 593d

cnn.6.bias f4 [32]
-0.037477165 0.019357538 -0.03498784 0.07164108 0.02353175 0.038592037 0.065796494 0.0065209744
-0.05899083 -0.014105466 -0.071479954 0.04781749 -0.07799866 -0.0625542 0.025397921 -0.07454556
0.052386638 0.05415479 0.039859053 -0.06987827 -0.026610171 0.0036426757 0.04086485 0.02704971
-0.034367695 -0.06304299 0.066662416 0.025134984 0.030128775 0.029867766 0.055556595 0.07569274
00000000: a881 19bd b393 9e3c 694f 0fbd 8fb8 923d
00000010: a8c5 c03c af12 1e3d 50c0 863d e6ad d53b
00000020: 5ea0 71bd 9d1a 67bc 1564 92bd 46dc 433d
00000030: c3bd 9fbd 6b1c 80bd 4d0f d03c 58ab 98bd
00000040: 5f93 563d 6ad1 5d3d 3f43 233d 571c 8fbd
00000050: 93fd d9bc f5b9 6e3b e761 273d 5a97 dd3c
00000060: 24c5 0cbd af1c 81bd 4e86 883d e2e7 cd3c
00000070: 9fd0 f63c 3fad f43c 508f 633d cc04 9b3d

cnn.8.weight f4 [64, 32, 3, 3]
-0.040888004 -0.02987316 0.05057404 -0.029552665 0.047837637 -0.016657088 0.040184923 0.045152705
-0.038011115 0.013500495 -0.022384569 0.018093225 -0.003831288 -0.008600446 -0.025297927 0.043594092
-0.047466468 -0.03374941 -0.0016430875 -0.04961095 -0.024303364 -0.050831124 -0.0009722206 0.023359783
-0.0123166125 0.06988614 -0.0050888895 0.02876608 -0.03188147 -0.0040280065 -0.014546021 -0.061172783
-0.033344008 0.023391427 0.028728634 -0.056152444 -0.052608352 -0.038118884 -0.007641472 -0.0044503855
-0.022586897 -0.018381491 0.021516347 -0.07059936 0.0046555917 0.063464254 0.049230244 -0.0043729222
0.052376177 -0.05255406 0.06052899 0.053614605 -0.026201544 -0.050422836 -0.053244993 0.041567035
0.040611725 -0.043311886 0.017464845 0.008701856 0.0017948494 0.023882044 0.027316451 0.012979209
0.033078995 -0.05689216 -0.039707407 0.044008374 0.047298864 0.035430416 -0.04859476 -0.0037090431
0.02132992 0.040929954 0.0063094962 0.0126329325 0.01941901 -0.011689949 0.035939552 0.067662284
0.02410484 -0.015282022 -0.04584846 -0.015238873 0.03921033 -0.04770342 0.06474473 0.03250846
0.021739336 -0.02354057 -0.024542041 0.0031940397 -0.018080343 -0.014300768 -0.008591878 -0.004032709
-0.016919678 -0.04174713 -0.023412878 -0.053014137 -0.049558707 0.03558128 0.040116705 -0.02138774
-0.04837414 -0.050334077 0.048005756 -0.07088544 -0.022088027 0.03527606 -0.039786596 0.060181003
0.045212034 0.045780428 0.012835073 0.05502339 -0.028135227 0.029812703 -0.026991893 0.0023898967
0.042558223 0.013989864 0.008418296 -0.05732655 -0.03487986 0.007516008 0.014450361 -0.022861103
0.008901611 0.05892841 -0.0060100704 -0.03401457 -0.003329904 0.019578632 0.04661899 0.023332091
-0.047478817 0.046430215 0.01161811 0.022332745 0.019843997 -0.005825041 -0.07043735 0.018791096
-0.046278924 -0.015755903 0.012165042 -0.005960048 0.05480987 0.020404462 -0.04321881 0.05576625
-0.04058893 0.06519311 0.001304291 0.017822383 -0.06346629 0.03503821 -0.05598535 -0.034695454
-0.004063947 -0.04303052 0.007570415 0.061834484 -0.024538077 -0.044362605 -0.0061818506 0.03901403
0.027502263 0.016687576 0.048707016 -0.048808686 -0.0505402 0.048612844 -0.037431493 0.03223658
0.008056696 0.014942863 -0.030597316 0.02341762 -0.060668547 0.013188221 -0.025110733 0.015369566
-0.013489754 0.10064468 -0.0074843853 0.036307573 0.012681625 0.0023709105 -0.0025992137 -0.02351776
-0.049649782 -0.010281943 0.017101755 0.033031497 -0.033197034 0.012909551 -0.0168481 0.024577007
-0.051319424 0.04389474 -0.0039231675 -0.046730008 0.07441743 -0.032597765 0.034639437 0.008422247
-0.041308142 -0.047339574 0.010111956 0.031298473 0.062039115 0.052626714 -0.0024221742 -0.015048451
0.038420003 -0.012545968 -0.027972134 0.029936854 0.0058018323 0.056640074 -0.024477826 0.020777509
-0.046777163 0.017247753 0.006828633 0.03484926 0.00028852627 0.017179042 0.072999716 0.020647258
0.0058265845 0.022419335 -0.03848518 -0.021439826 0.0035201423 0.0048144395 0.00610638 -0.092568494
0.027696004 -0.0037776255 0.059958976 -0.0038399284 -0.003913552 0.02782503 -0.0059071314 -0.0023850016
-0.047433306 -0.06235538 -0.0064663 -0.0066979975 0.034634434 -0.007352515 0.025636787 -0.00401467
00000000: 2e7a 27bd 8fb8 f4bc b926 4f3d 6e18 f2bc
00000010: 66f1 433d 7274 88bc f298 243d 0bf2 383d
00000020: 8bb1 1bbd 2e31 5d3c d85f b7bc 3e38 943c
00000030: 5916 7bbb e3e8 0cbc 993d cfbc b88f 323d
00000040: 336c 42bd d23c 0abd de5c d7ba da34 4bbd
00000050: d917 c7bc 4c34 50bd 9fdc 7eba 045d bf3c
00000060: 9ecb 49bc 7720 8f3d b3c0 a6bb d8a6 eb3c
00000070: 2596 02bd 5efd 83bb 6f52 6ebc 5090 7abd
00000080: ba93 08bd 619f bf3c 5058 eb3c 1b00 66bd
00000090: db7b 57bd 8c22 1cbd 5065 fabb 8ad4 91bb
000000a0: 2808 b9bc c894 96bc 0d43 b03c 6696 90bd
000000b0: ef8d 983b 8cf9 813d a7a5 493d bb4a 8fbb
000000c0: 6788 563d ed42 57bd 3fed 773d fd9a 5b3d
000000d0: 9fa4 d6bc 2d88 4ebd 6c17 5abd 3242 2a3d
000000e0: 7b58 263d ce67 31bd 6f12 8f3c 3b92 0e3c
000000f0: 2741 eb3a 47a4 c33c c0c6 df3c c0a6 543c
00000100: d77d 073d c107 69bd 3ca4 22bd 2042 343d
00000110: 74bc 413d 7c1f 113d 4d0b 47bd 6b13 73bb
00000120: 16bc ae3c 2ba6 273d e4bf ce3b 5cfa 4e3c
00000130: 9e14 9f3c 3387 3fbc 5a35 133d 8692 8a3d
00000140: 8377 c53c 7261 7abc 98cb 3bbd 77ac 79bc
00000150: 039b 203d a964 43bd e398 843d 9727 053d
00000160: b116 b23c 27d8 c0bc 640c c9bc 1853 513b
00000170: 3a1d 94bc c54d 6abc f3c4 0cbc d124 84bb
00000180: 239b 8abc 0aff 2abd 5dcc bfbc 5a25 59bd
00000190: 12fe 4abd adbd 113d 6a51 243d 5735 afbc
000001a0: f623 46bd 1b2b 4ebd afa1 443d 632c 91bd
000001b0: f3f1 b4bc a17d 103d 45f7 22bd 5b80 763d
000001c0: 4130 393d 4284 3b3d 334a 523c 3560 613d
000001d0: d97b e6bc c539 f43c 1a1e ddbc d09f 1c3b
000001e0: 8851 2e3d be35 653c e5ec 093c 3fcf 6abd
000001f0: 2fde 0ebd d848 f63b 35c1 6c3c 3547 bbbc
00000200: 10d8 113c eb5e 713d 20f0 c4bb dd52 0bbd
00000210: 853a 5abb 5e63 a03c 8ef3 3e3d f122 bf3c
00000220: 2679 42bd 9c2d 3e3d e359 3e3c 29f3 b63c
00000230: e18f a23c fcdf bebb 7541 90bd c9ef 993c
00000240: f88e 3dbd 8612 81bc e24f 473c 824c c3bb
00000250: 5080 603d 4227 a73c 3506 31bd 276b 643d
00000260: 9440 26bd f783 853d bef4 aa3a 3f00 923c
00000270: 9dfa 81bd 3a84 0f3d e550 65bd d21c 0ebd
00000280: dc2a 85bb c540 30bd 3e11 f83b 2846 7d3d
00000290: 1404 c9bc 90b5 35bd 1f91 cabb 2dcd 1f3d
000002a0: 6d4c e13c 62b4 883c 0281 473d 9eeb 47bd
000002b0: 3e03 4fbd 431e 473d c451 19bd 810a 043d
000002c0: 3b00 043c e9d2 743c 39a7 fabc 4fd6 bf3c
000002d0: 957f 78bd 6813 583c 06b5 cdbc a2d0 7b3c
000002e0: 2104 5dbc cc1e ce3d 933f f5bb 40b7 143d
000002f0: 97c6 4f3c 4761 1b3b 9257 2abb 51a8 c0bc
00000300: 925d 4bbd 9875 28bc fb18 8c3c 094c 073d
00000310: 9df9 07bd 9582 533c 0705 8abc b855 c93c
00000320: 5134 52bd f9ca 333d ea8d 80bb f767 3fbd
00000330: 2a68 983d 3c85 05bd 15e2 0d3d 77fd 093c
00000340: ba32 29bd 24e7 41bd 9eac 253c d432 003d
00000350: ba1c 7e3d 1c8f 573d 57bd 1ebb c78d 76bc
00000360: 4b5e 1d3d 9b8d 4dbc d125 e5bc 223e f53c
00000370: 4c1d be3b 6cff 673d b985 c8bc 9835 aa3c
00000380: 6999 3fbd 294b 8d3c bac2 df3b 19be 0e3d
00000390: 5745 9739 10bb 8c3c e080 953d 7024 a93c
000003a0: efec be3b c1a8 b73c a3a2 1dbd 93a2 afbc
000003b0: 30b2 663b 72c2 9d3b 0718 c83b 8d94 bdbd
000003c0: bbe2 e23c 0a92 77bb 8b97 753d 4fa7 7bbb
000003d0: 413d 80bb 51f1 e33c 9c90 c1bb b04d 1cbb
000003e0: 6d49 42bd 5b68 7fbd 42e3 d3bb e07a dbbb
000003f0: d6dc 0d3d 5eed f0bb 3d04 d23c 7e8d 83bb

cnn.8.bias f4 [64]
-0.00037871127 -0.053439118 -0.045616377 0.0039285254 0.026029052 0.047846034 0.03212587 0.04901235
-0.025764314 -0.044796906 -0.048129834 0.013755337 0.026920479 0.04857148 -0.014143299 -0.022204524
-0.012562946 -0.04127189 -0.022140479 0.0024333838 -0.011881654 0.026503505 0.011221403 -0.029520767
0.0074887574 -0.017589655 -0.037578553 -0.044493802 0.02115126 0.02902677 -0.030514488 -0.051836405
-0.03081253 -0.038559895 0.024113184 0.0059690056 -0.0051584127 -0.023647666 -0.025862493 0.026147857
-0.03228949 -0.025705894 0.025375199 0.012783354 0.03908623 -0.048976522 -0.0062125935 0.028933192
0.025653396 0.0036461726 0.0130647225 0.03334403 0.0031208992 -0.05011955 0.025233189 0.037660133
0.038810868 0.042414937 -0.011889823 0.046320405 -0.03291418 0.006301852 -0.044133637 0.030183455
00000000: c48d c6b9 fae2 5abd 3dd8 3abd dcba 803b
00000010: e13a d53c 34fa 433d 6b96 033d 2dc1 483d
00000020: af0f d3bc f67c 37bd ca23 45bd 115e 613c
00000030: 5688 dc3c e3f2 463d 4cb9 67bc 43e6 b5bc
00000040: d1d4 4dbc b70c 29bd f35f b5bc 6879 1f3b
00000050: 45ab 42bc e11d d93c fad9 373c 89d5 f1bc
00000060: 4064 f53b 2e18 90bc f8eb 19bd 223f 36bd
00000070: 6845 ad3c 8cc9 ed3c 85f9 f9bc 6952 54bd
00000080: 8f6a fcbc fbf0 1dbd 0389 c53c a697 c33b
00000090: e707 a9bb c0b8 c1bc 94dd d3bc 0834 d63c
000000a0: fc41 04bd 2b95 d2bc a6df cf3c 4671 513c
000000b0: e218 203d 9b9b 48bd 0393 cbbb 4d05 ed3c
000000c0: 1227 d23c a0f4 6e3b 6b0d 563c c093 083d
000000d0: 0088 4c3b 284a 4dbd d5b5 ce3c 8341 1a3d
000000e0: 25f8 1e3d 49bb 2d3d 88cd 42bc 77ba 3d3d
000000f0: 05d1 06bd c47f ce3b 79c5 34bd 4b43 f73c

cnn.10.weight f4 [128, 64, 3, 3]
-0.021658536 -0.018222868 -0.040993717 -0.012442291 0.025941873 0.019616254 0.022660885 0.008095307
0.0097158635 -0.03950929 0.038605656 -0.024880758 -0.012953093 -0.026664075 -0.0067909546 0.02326307
0.05008421 -0.020510055 0.010090988 -0.020211473 -0.020924818 -0.00716741 0.013920957 -0.03244441
0.0066840798 -0.012752208 -0.022777006 -0.00880513 -0.033821404 0.011715516 -0.008569885 -0.040457644
0.026836164 -0.024463113 -0.039159775 -0.04863991 0.0275071 0.013400588 0.01900724 -0.005074125
0.0035939359 -0.03726612 0.015230056 0.03177992 -0.01924102 -0.032375827 -0.013377508 -0.0041032284
0.005832281 -0.0059290743 -0.018029274 -0.03143642 0.018843524 0.047263015 0.014177597 -0.0092295855
0.024350677 0.024487156 -0.020961473 -0.027756149 0.0010414533 -0.014041389 0.028037868 -0.0019139051
0.028740767 -0.024523895 -0.024017707 0.008996135 -0.05327478 0.01770778 0.0048066336 0.012179753
0.03704675 -0.011838198 -0.037738964 -0.011271697 -0.01095894 -0.027517015 0.040638912 0.026057035
-0.041056618 -0.0018952006 -0.040215623 -0.004938502 -0.0018890437 -0.013035218 0.032427974 -0.034898426
-0.03928097 0.009952195 0.018689927 -0.017495146 0.017216712 -0.038071692 -0.0247175 -0.025648454
-0.0017179437 0.011319047 -0.034334067 0.015620529 -0.0006078817 -0.00373495 0.035565283 -0.021312362
0.03747384 0.0036212392 0.041260127 0.014550172 -0.010493984 0.018154189 -0.021445528 -0.009983499
-0.035822734 -0.012357272 -0.037587207 -0.044589862 -0.0054189367 -0.014487755 0.018708259 0.006269444
-0.029959505 0.02749692 0.023545815 0.015403673 0.02676523 -0.009282297 -0.020932462 0.0026602037
0.012757387 0.03439801 -0.037505083 -0.0069090477 0.020434354 -0.038512032 -0.029867806 0.031175852
-0.035831805 -0.024643045 0.018206384 0.02300247 -0.010827174 0.0073752254 -0.012720306 -0.024155121
-0.016469484 -0.00040559098 -0.027160078 -0.0039983205 0.035971828 -0.024512488 0.016689673 0.002408862
-0.03664342 0.023649666 -0.011946088 -0.02400211 -0.022559902 0.015422521 -0.00014518865 -0.037765704
0.022202952 -0.051383477 0.006537948 -0.02973116 0.040991712 0.029590297 -0.04168957 -0.011355437
0.032270063 -0.047068477 -0.019006317 -0.04120761 -0.028381469 0.024703445 -0.02598482 -0.028452035
-0.019598695 -0.038988173 0.017909722 0.026334606 0.034013975 -0.0068774484 -0.003216263 -0.027666435
0.016829038 0.004181538 -0.02124322 0.0033204255 0.011892333 -0.0029063635 0.025229577 0.02466106
-0.0075436495 0.046602592 0.051650357 0.033114452 0.026175907 0.0094368365 0.031198489 0.014724035
-0.02354598 0.002591487 0.02051992 0.019015035 -0.0036023445 -0.028486082 -0.0063325725 0.0102321245
-0.030455297 -0.007877085 0.00397015 0.04581283 -0.04687338 -0.024879992 -0.02972622 -0.029832402
-0.017477002 -0.0013662465 -0.040816225 -0.03575644 -0.031677477 -0.0390126 -0.00871003 -0.044387013
-0.019407783 0.035879824 -0.0050809383 -0.025977671 -0.032411844 0.045000955 -0.00633179 -0.03879788
0.03166267 -0.028561017 0.036336567 0.030325904 -0.025499066 -0.029101297 -0.022841265 -0.019950263
0.0061144643 -0.024403471 -0.0054363906 -0.019353535 -0.0038597323 -0.02528306 -0.008256603 -0.027363913
-0.018829785 0.025020678 0.039364424 0.00032118516 0.026797984 -0.03942497 -0.012258783 -0.039857365
00000000: 3e6d b1bc 2048 95bc 07e9 27bd c0da 4bbc
00000010: 0d84 d43c 44b2 a03c 52a3 b93c 2ea2 043c
00000020: 492f 1f3c 7ed4 21bd f720 1e3d bbd2 cbbc
00000030: 3639 54bc 9e6e dabc a886 debb 3292 be3c
00000040: 1a25 4d3d b404 a8bc ac54 253c 8892 a5bc
00000050: 866a abbc 98dc eabb ba14 643c 6ee4 04bd
00000060: 2006 db3b a3ee 50bc d896 babc 6443 10bc
00000070: 5088 0abd 70f2 3f3c b468 0cbc eab6 25bd
00000080: 84d7 db3c de66 c8bc 0066 20bd a43a 47bd
00000090: 9256 e13c 248e 5b3c 12b5 9b3c d844 a6bb
000000a0: 3d88 6b3b 5ca4 18bd 7c87 793c a92b 023d
000000b0: 589f 9dbc 849c 04bd 562d 5bbc 6074 86bb
000000c0: b81c bf3b ae48 c2bb 21b2 93bc 7ac3 00bd
000000d0: bc5d 9a3c dd96 413d 2749 683c b037 17bc
000000e0: 127b c73c 4a99 c83c 65b7 abbc dd60 e3bc
000000f0: 6081 883a db0d 66bc acaf e53c 00dc faba
00000100: c271 eb3c 56e6 c8bc c8c0 c4bc 8664 133c
00000110: a836 5abd e80f 913c f780 9d3b 968d 473c
00000120: 55be 173d 00f5 41bc 2c94 1abd ecac 38bc
00000130: 208d 33bc 5d6b e1bc fd74 263d 9075 d53c
00000140: fc2a 28bd 6168 f8ba 23b9 24bd 28d3 a1bb
00000150: ca99 f7ba ab91 55bc 32d3 043d a7f1 0ebd
00000160: 15e5 20bd 880e 233c 9e1b 993c fb51 8fbc
00000170: 100a 8d3c 10f1 1bbd 5b7c cabc b51c d2bc
00000180: a02c e1ba 8673 393c e1a1 0cbd 3fed 7f3c
00000190: 405a 1fba 10c6 74bb e7ac 113d 4397 aebc
000001a0: 2b7e 193d 5052 6d3b 6100 293d d863 6e3c
000001b0: f6ee 2bbc 18b8 943c 88ae afbc d491 23bc
000001c0: dcba 12bd 2876 4abc 0bf5 19bd dca3 36bd
000001d0: 5691 b1bb 0c5e 6dbc 1042 993c e86f cd3b
000001e0: a36d f5bc 3941 e13c 27e3 c03c b05f 7c3c
000001f0: c142 db3c c714 18bc 8e7a abbc d056 2e3b
00000200: 5c04 513c ede4 0c3d ee9e 19bd 4b65 e2bb
00000210: f265 a73c cbbe 1dbd 54ad f4bc 8064 ff3c
00000220: 5fc4 12bd 36e0 c9bc 8e25 953c ad6f bc3c
00000230: 7664 31bc e0ab f13b d568 50bc f6e0 c5bc
00000240: 03eb 86bc 80a5 d4b9 d07e debc 5804 83bb
00000250: 3257 133d 6ace c8bc c8b8 883c 00de 1d3b
00000260: 6917 16bd f2bc c13c 86b9 43bc 13a0 c4bc
00000270: 8bcf b8bc beae 7c3c c83d 18b9 36b0 1abd
00000280: f7e2 b53c 7b77 52bd 483c d63b c38e f3bc
00000290: ede6 273d 5a67 f23c afc2 2abd 280c 3abc
000002a0: 9d2d 043d e0ca 40bd 23b3 9bbc 50c9 28bd
000002b0: 4180 e8bc e15e ca3c 1ede d4bc 3e14 e9bc
000002c0: 718d a0bc 10b2 1fbd 69b7 923c acbb d73c
000002d0: 3d52 0b3d 385c e1bb f0c7 52bb b8a4 e2bc
000002e0: 0ddd 893c 4805 893b 4306 aebc 7f9b 593b
000002f0: 0fd8 423c b078 3ebb 42ae ce3c fe05 ca3c
00000300: b830 f7bb 5ce2 3e3d 538f 533d 05a3 073d
00000310: db6e d63c f69c 1a3c f993 ff3c 143d 713c
00000320: 80e3 c0bc f0d5 293b 6419 a83c 6bc5 9b3c
00000330: 5015 6cbb a55b e9bc 7881 cfbb a4a4 273c
00000340: 637d f9bc e40e 01bc 0818 823b 3ca6 3b3d
00000350: 4dfe 3fbd 20d1 cbbc 6784 f3bc 1563 f4bc
00000360: ee2b 8fbc a013 b3ba ea2e 27bd 5875 12bd
00000370: 3ec0 01bd adcb 1fbd 83b4 0ebc 28cf 35bd
00000380: 12fd 9ebc b9f6 123d 007e a6bb 20cf d4bc
00000390: 48c2 04bd ec52 383d e77a cfbb 87ea 1ebd
000003a0: b7b0 013d cbf8 e9bc a7d5 143d 086e f83c
000003b0: 6be3 d0bc d865 eebc 9b1d bbbc bc6e a3bc
000003c0: d85b c83b cae9 c7bc c023 b2bb 4e8b 9ebc
000003d0: 90f3 7cbb 6b1e cfbc b446 07bc 492a e0bc
000003e0: ec40 9abc 2af8 cc3c 973c 213d be64 a839
000003f0: 7287 db3c 147c 21bd 10d9 48bc 7a41 23bd

cnn.10.bias f4 [128]
-0.021019727 0.030511485 0.002942693 0.018356234 -0.03569042 -0.0075705047 0.017969074 -0.014858369
0.004220883 -0.020352738 -0.03000933 -0.016085872 0.042249165 -0.015459065 0.033294175 0.025118489
0.037127227 -0.004154847 -0.017235529 0.013610452 -0.025855886 -0.020066166 0.0146891875 -0.023649236
-0.0038920764 0.025468733 -0.013418016 0.019138869 0.0041805394 0.0024422095 0.008101804 -0.007912716
0.045508366 0.024217116 -0.024795622 0.008786415 0.013144818 0.011725662 0.021571351 0.03750466
0.0025215421 -0.038514063 -0.015058571 0.015160667 -0.02841459 0.018040814 0.030369679 0.007517385
-0.012032495 -0.013111838 -0.0064490195 -0.012021823 -0.0126241995 -0.019804224 -0.034548078 0.0041646613
0.000637859 -0.02132552 0.00490921 -0.019137431 0.004335467 -0.032449763 -0.03556636 0.026853072
0.045052778 -0.008850124 0.016319588 0.028558053 0.022483842 -0.026408711 -0.023510588 -0.034331582
-0.020391742 0.015129178 -0.041929893 0.0017097562 -0.01398415 -0.029444115 0.021124603 -0.012332742
-0.036500335 -0.023156673 -0.029996045 -0.021664849 0.032479137 0.0008921391 0.032972217 0.016981436
-0.007188982 0.034276586 0.005927315 0.022663997 -0.024126304 0.005496513 -0.012982001 -0.01816801
0.03546796 -0.027454346 -0.02106881 0.034500368 0.036458097 0.021423595 -0.0069128224 0.023107596
0.0020058022 -0.019455103 -0.019273149 -0.02914494 -0.017882453 0.027384477 -0.036964167 0.033791333
0.012087768 0.023998518 0.018349998 0.02213619 0.027683994 -0.0025908004 0.022277273 -0.009706924
0.018890219 -0.016529908 -0.032290317 0.017498922 -0.005422452 0.018909331 -0.0053679063 -0.033527207
00000000: 9031 acbc 39f3 f93c 32da 403b d05f 963c
00000010: 1e30 12bd ff11 f8bb e133 933c 8470 73bc
00000020: 554f 8a3b c9ba a6bc 20d6 f5bc 85c6 83bc
00000030: 760d 2d3d 0548 7dbc 795f 083d 4ac5 cd3c
00000040: b812 183d 6225 88bb 8631 8dbc 60fe 5e3c
00000050: b9cf d3bc cd61 a4bc ebaa 703c 0bbc c1bc
00000060: 3512 7fbb cea3 d03c 3dd7 5bbc 1ec9 9c3c
00000070: e8fc 883b 7a0d 203b 6ebd 043c 56a4 01bc
00000080: fb66 3a3d f962 c63c 3020 cbbc e5f4 0f3c
00000090: 5d5d 573c fe1c 403c 67b6 b03c 7d9e 193d
000000a0: 7540 253b ecc0 1dbd 39b8 76bc 7264 783c
000000b0: b7c5 e8bc 54ca 933c d5c9 f83c 6554 f63b
000000c0: f123 45bc 09d3 56bc 4c52 d3bb 2ef7 44bc
000000d0: bbd5 4ebc 783c a2bc 4982 0dbd b677 883b
000000e0: fe35 273a dbb2 aebc 70dd a03b 1ac6 9cbc
000000f0: 8810 8e3b 0bea 04bd 08ae 11bd f9fa db3c
00000100: 4389 383d 1c00 11bc a8b0 853c 94f2 e93c
00000110: 0930 b83c 1557 d8bc 4799 c0bc 469f 0cbd
00000120: 950c a7bc 5fe0 773c aebe 2bbd e619 e03a
00000130: c71d 65bc c934 f1bc 810d ad3c 450f 4abc
00000140: 6081 15bd 10b3 bdbc 44ba f5bc 7b7a b1bc
00000150: d808 053d 71de 693a e00d 073d a71c 8b3c
00000160: 8d91 ebbb 9b65 0c3d ec39 c23b d9a9 b93c
00000170: 87a4 c5bc 181c b43b 75b2 54bc 14d5 94bc
00000180: da46 113d f0e7 e0bc 7f98 acbc 4250 0d3d
00000190: 1655 153d 8980 af3c f584 e2bb 244c bd3c
000001a0: c773 033b 4f60 9fbc b9e2 9dbc 5fc1 eebc
000001b0: 397e 92bc 6955 e03c bd67 17bd c868 0a3d
000001c0: c60b 463c 8a98 c43c bc52 963c f556 b53c
000001d0: 8bc9 e23c 6bca 29bb d47e b63c ca09 1fbc
000001e0: a9bf 9a3c bb69 87bc da42 04bd e659 8f3c
000001f0: d3ae b1bb bee7 9a3c 43e5 afbb d353 09bd

linear.weight f4 [64, 128]
-0.029683873 -0.017270118 0.07577541 0.036020618 0.07391544 0.057311457 0.0669472 -0.03915512
0.05128991 -0.070728794 0.040267155 0.07105035 0.09048712 -0.004636449 0.008349253 0.04135479
0.0862142 -0.0508727 -0.09704178 0.072916776 0.06948468 -0.06453863 0.012273302 0.022160107
-0.0109315505 0.10116363 0.0013449152 0.09395614 -0.014115869 -0.011654348 0.00084587367 -0.038092982
-0.08184837 0.03525178 -0.08232156 -0.046079177 -0.055811502 -0.027720409 -0.034747392 -0.03784519
-0.0314883 -0.036116697 -0.0697609 0.032271933 -0.0031426467 -0.03778936 -0.08459977 -0.04880634
0.04327056 0.058369968 -0.04678955 -0.034241945 0.044536807 -0.07283918 0.030339519 0.004549384
0.053001262 0.034713678 -0.07779364 -0.038150333 -0.0374924 -0.04465747 -0.005238003 0.07902172
0.00092240795 0.00072504993 -0.06717801 0.09431846 -0.04339753 -0.037848838 -0.032481093 -0.08102801
-0.05533757 -0.00709493 -0.010448949 -0.038256083 -0.05459711 -0.016741699 0.001103857 -0.05788647
-0.04005354 0.02614747 -0.078279376 -0.028174143 0.07241894 -0.051858608 0.031997714 -0.07167061
-0.037151072 -0.0045461403 -0.043131 -0.06494104 -0.066470996 0.034251735 -0.04652227 -0.07020774
-0.06906781 -0.06910378 0.072240114 -0.0749479 -0.006317124 -0.022686616 -0.009106695 -0.0135310395
-0.058144912 -0.024440652 0.006576192 0.062377583 0.05360621 0.085394025 0.0035931778 0.02743526
-0.026011022 -0.055496257 0.06280876 -0.0493602 0.035088945 0.055439077 -0.055006627 -0.08941721
-0.032316912 -0.011648466 -0.03455067 0.04394745 -0.020904792 0.087162286 0.016818706 0.020833308
-0.07212135 0.04745976 0.08122817 0.00078747765 -0.08593862 -0.0075739003 0.001867048 0.0867988
-0.094367124 -0.09125074 0.03906866 0.019881118 0.06237628 0.0025099264 0.09860872 -0.024949588
0.06033289 -0.0114462795 0.0012060713 -0.062251788 -0.021513723 -0.0030319795 -0.06637826 -0.045495026
0.033857126 -0.017078053 -0.022860304 -0.063094705 0.059866242 0.012063328 -0.046005435 0.063598976
0.03922514 0.039081473 0.06202233 -0.00022843303 0.030081749 -0.0044457656 -0.018139858 -0.013673898
-0.03506928 -0.029988317 -0.07211005 -0.08217313 0.008536314 -0.061464336 0.01860914 0.026976164
-0.09445832 0.058249265 0.06589387 0.01825423 -0.061299592 0.025344398 0.046096403 -0.033506345
-0.07380073 -0.09777937 0.08552066 0.031187756 -0.0021969238 -0.06972867 0.016611913 -0.07814943
-0.051920537 -0.017179329 0.048582528 0.012584706 0.011243376 0.06199077 -0.055131137 0.056209933
-0.08409419 0.067754194 0.0038079442 0.0036952223 -0.0639817 0.06445014 0.015398235 0.049993142
0.008082563 0.059955515 0.035486653 -0.014588427 0.024132323 0.06652897 -0.060108244 0.088230014
-0.025563361 -0.07202851 0.022944918 0.035420522 0.04321071 -0.004533701 -0.07604029 0.0622684
-0.0683687 0.0018155492 -0.07185318 0.033749145 0.075370476 0.07841597 -0.015125658 -0.0024797616
-0.0010046448 -0.04127161 0.07672303 -0.09276823 0.055198766 -0.005728372 0.0038660842 0.04340131
0.034957457 -0.07468121 -0.060794607 0.09067679 0.008082536 0.081333295 -0.076843694 -0.08524151
-0.03276159 0.070539854 -0.0017008805 -0.03229397 -0.02064862 -0.07642113 -0.016431509 0.013185093
00000000: 982b f3bc 107a 8dbc 2330 9b3d 5b8a 133d
00000010: fa60 973d 6bbf 6a3d 9d1b 893d 1e61 20bd
00000020: 5e15 523d 42da 90bd 2cef 243d d982 913d
00000030: 5051 b93d 5aed 97bb 4ecb 083c a463 293d
00000040: 1291 b03d e45f 50bd d7bd c6bd 6455 953d
00000050: fc4d 8e3d d42c 84bd f615 493c 1d89 b53c
00000060: 3f1a 33bc e12e cf3d de47 b03a 146c c03d
00000070: 3f46 67bc e1f1 3ebc 9fbd 5d3a 6307 1cbd
00000080: 1ea0 a7bd 2c64 103d 3598 a8bd 85bd 3cbd
00000090: 9a9a 64bd e915 e3bc 4853 0ebd 8f03 1bbd
000000a0: e0f9 00bd 1aef 13bd cede 8ebd 932f 043d
000000b0: ddf4 4dbb 04c9 1abd a542 adbd 28e9 47bd
000000c0: 793c 313d 5915 6f3d 66a6 3fbd 4841 0cbd
000000d0: 3a6c 363d b52c 95bd 958a f83c 0013 953b
000000e0: da17 593d ee2f 0e3d 4652 9fbd 8643 1cbd
000000f0: a191 19bd c0ea 36bd 8ea3 abbb 24d6 a13d
00000100: c0cd 713a 4711 3e3a a094 89bd 092a c13d
00000110: 9cc1 31bd 6207 1bbd e50a 05bd 03f2 a5bd
00000120: a6a9 62bd 967c e8bb 1232 2bbc 69b2 1cbd
00000130: 38a1 5fbd e325 89bc 4baf 903a 5d1a 6dbd
00000140: 2e0f 24bd 3833 d63c f050 a0bd 76cd e6bc
00000150: 6250 943d b169 54bd 0910 033d 0ac8 92bd
00000160: b92b 18bd caf7 94bb 22aa 30bd cfff 84bd
00000170: f221 88bd 8c4b 0c3d 238e 3ebd 13c9 8fbd
00000180: 6d73 8dbd 4886 8dbd a0f2 933d 497e 99bd
00000190: e0ff cebb 48d9 b9bc 3f34 15bc 4bb1 5dbc
000001a0: 5c29 6ebd c337 c8bc 197d d73b a37f 7f3d
000001b0: 2f92 5b3d 10e3 ae3d 857b 6b3b e9bf e03c
000001c0: 1115 d5bc 0b50 63bd e1a1 803d ec2d 4abd
000001d0: 6db9 0f3d 1614 633d a14e 61bd 5f20 b7bd
000001e0: bd5e 04bd 35d9 3ebc 0185 0dbd 3e02 343d
000001f0: 8740 abbc 2482 b23d 62c7 893c 9daa aa3c
00000200: 5cb4 93bd 2a65 423d f45a a63d bb6e 4e3a
00000210: 9600 b0bd 7b2e f8bb bcb7 f43a 92c3 b13d
00000220: 8d43 c1bd abe1 babd 7606 203d badd a23c
00000230: 457e 7f3d 947d 243b 5ef3 c93d 1463 ccbc
00000240: 9f1f 773d 2d89 3bbc 0a15 9e3a bbfb 7ebd
00000250: 8c3d b0bc 2db4 46bb 53f1 87bd fe58 3abd
00000260: c5ad 0a3d 46e7 8bbc 8845 bbbc cc37 81bd
00000270: 4e36 753d 44a5 453c 3270 3cbd 2e40 823d
00000280: 8aaa 203d e513 203d 200b 7e3d 8687 6fb9
00000290: 006e f63c c9ad 91bb 0a9a 94bc 7c08 60bc
000002a0: cea4 0fbd 0faa f5bc 6fae 93bd 634a a8bd
000002b0: e5db 0b3c 07c2 7bbd 3272 983c 1efd dc3c
000002c0: 5d73 c1bd c896 6e3d 5ef3 863d e589 953c
000002d0: 4815 7bbd 0e9f cf3c 95cf 3c3d f33d 09bd
000002e0: d624 97bd 8d40 c8bd 7525 af3d 777d ff3c
000002f0: 44fa 0fbb e8cd 8ebd b515 883c cf0c a0bd
00000300: a1aa 54bd aabb 8cbc 79fe 463d 1530 4e3c
00000310: 2336 383c 09ea 7d3d 30d1 61bd 633c 663d
00000320: 9339 acbd b6c2 8a3d b48e 793b 8b2b 723b
00000330: d608 83bd 6ffe 833d e148 7c3c 9cc5 4c3d
00000340: ba6c 043c ea93 753d 745a 113d 4c04 6fbc
00000350: 26b1 c53c 5740 883d 1034 76bd f0b1 b43d
00000360: 416a d1bc af83 93bd fbf6 bb3c 1c15 113d
00000370: b7fd 303d 718f 94bb 03bb 9bbd 260d 7f3d
00000380: e404 8cbd b9f7 ed3a c327 93bd 8b3c 0a3d
00000390: d65b 9a3d 8d98 a03d 9cd1 77bc 7f83 22bb
000003a0: 49ae 83ba 6b0c 29bd f720 9d3d 45fd bdbd
000003b0: 1a18 623d 11b5 bbbb 215e 7d3b 92c5 313d
000003c0: 8d2f 0f3d 76f2 98bd c403 79bd c1b4 b93d
000003d0: 9d6c 043c 1292 a63d 3a60 9dbd 1a93 aebd
000003e0: 0431 06bd 3377 903d 14f0 deba af46 04bd
000003f0: 4b27 a9bc ae82 9cbd 5f9b 86bc 4a06 583c

linear.bias f4 [64]
-0.052517917 -0.067605145 -0.019015117 0.029185217 0.051773727 -0.01979478 0.023853067 0.06389276
0.028079178 0.08269448 -0.0353315 0.048021287 0.078455605 0.056775223 0.017646488 0.06356149
0.054605823 -0.06640874 -0.016788924 0.0316681 0.03337259 -0.07621028 0.06634096 0.058017116
0.009994471 -0.05159351 0.06487147 -0.0024084742 -0.037232015 -0.039074842 0.030603405 0.034841087
-0.05045011 -0.017366689 0.044778258 -0.050015032 -0.035477635 0.032219812 0.073472165 0.082087934
-0.054212313 -0.033880115 0.031170253 0.03967608 0.023509147 0.047418002 -0.03831184 -0.043574624
0.073063165 -0.042708382 -0.017096661 0.07197245 -0.0010602531 -0.042863853 -0.07561393 0.024521548
-0.06310019 0.072151385 0.020534856 -0.04436658 0.058354102 0.034908704 0.023169333 -0.05646482
00000000: 071d 57bd 9174 8abd 97c5 9bbc d615 ef3c
00000010: b010 543d aa28 a2bc 8267 c33c 35da 823d
00000020: 4e06 e63c b95b a93d c3b7 10bd f8b1 443d
00000030: 55ad a03d 238d 683d 5e8f 903c 872c 823d
00000040: 5baa 5f3d 4e01 88bd ed88 89bc 69b6 013d
00000050: b2b1 083d 2314 9cbd c5dd 873d 5ba3 6d3d
00000060: dabf 233c b753 53bd 55db 843d 7ed7 1dbb
00000070: 9980 18bd f10c 20bd feb3 fa3c 87b5 0e3d
00000080: c6a4 4ebd 9644 8ebc 6869 373d 90dc 4cbd
00000090: ff50 11bd ecf8 033d 9378 963d b81d a83d
000000a0: bb0d 5ebd e0c5 0abd c258 ff3c 6383 223d
000000b0: 4196 c03c 6139 423d e0ec 1cbd 4e7b 32bd
000000c0: 24a2 953d fcee 2ebd 4c0e 8cbc 4b66 933d
000000d0: 31f8 8aba 0292 2fbd 7adb 9abd 6ae1 c83c
000000e0: ac3a 81bd 1bc4 933d b738 a83c bbb9 35bd
000000f0: b604 6f3d 6efc 0e3d 9dcd bd3c a847 67bd
